segmentation_paper/metrics/CNN_Model2_1a_Conv1D_1_filters.npy (npy, 3328 bytes, 1 tensors)

array f4 [50, 1, 16]
0.02334961 0.043571398 0.075138696 0.051486254 -0.04393858 -0.07204965 -0.060236733 -0.029991614
0.0116687445 -0.013305019 0.007525747 0.060299516 -0.0022597206 0.029462392 -0.067933865 0.048296038
-0.060711045 -0.077653445 0.0432794 0.027445134 -0.05197731 0.046141777 0.008620305 -0.037766572
0.02591504 -0.054764368 -0.014310795 0.0563381 -0.05138387 -0.03873177 0.03519342 -0.019471085
0.060925074 0.046491675 0.014252476 0.049907558 -0.07434317 -0.08051916 -0.087180816 0.047927883
-0.06364299 0.03363409 0.07413507 -0.054964114 -0.04361396 0.020590173 0.0006530227 0.0046365485
0.07559077 -0.040727284 0.08297285 -0.06644039 -0.05673164 -0.006204909 0.04300547 -0.014325937
0.065324 0.03874507 -0.01612502 0.04233744 0.008620768 -0.059002783 0.0037325881 -0.10096917
-0.053782795 0.031730242 -0.0061166724 0.04636251 -0.054051794 -0.0749017 -0.0067000315 0.07687432
0.03750365 -0.0280758 0.044718716 0.07907774 -0.054196402 -0.10000395 -0.038503595 -0.06985493
-0.05848304 0.066539116 0.025665015 -0.011924991 -0.07351132 0.069823146 0.045308165 0.0877359
0.065900676 -0.037641663 -0.046207376 -0.057444796 -0.06743451 -0.088060476 0.07269757 -0.040494926
0.021189254 0.087956466 -0.043953974 -0.022153165 0.03964987 -0.006591404 -0.053322844 -0.054806374
-0.03651355 -0.0029468748 0.047448665 -0.05074502 0.062132236 -0.031635247 0.02983968 -0.0467019
-0.011086616 0.014648647 -0.08984685 -0.00440269 0.014938963 -0.028677214 -0.054336432 0.082379155
-0.034188822 0.056765586 0.025814189 0.03242709 0.015277081 0.052905682 -0.059804805 -0.015684716
-0.035745356 -0.07532511 -0.028771186 0.021809423 -0.01345342 -0.07358728 0.03421645 -0.05450108
-0.054752436 0.019414835 0.038446836 0.06200095 0.02426715 -0.086591855 0.03218214 -0.06434248
-0.08186035 -0.07148654 0.014528529 0.000389098 -0.007553015 0.07319757 -0.025449459 0.044734687
0.023317182 0.03898865 0.046766408 0.055830065 -0.023466988 0.031814877 0.074136846 0.0057432577
0.05289781 0.01637115 0.08334469 0.017957306 0.042890724 0.036558032 -0.06946059 -0.07740147
0.07763158 0.029300043 0.053223573 0.04811423 -0.07213319 0.05499716 -0.07393748 -0.08123287
-0.07209948 0.03721771 -0.077076815 -0.07878828 0.047547773 -0.06753349 -0.0162842 -0.0039733136
0.022715205 -0.0113810105 0.00558755 0.07369823 0.06454727 -0.060585197 0.07426722 0.07887267
0.041632228 -0.040047716 -0.057839945 -0.053433776 -0.05221797 -0.05847417 -0.008407868 0.020669349
0.04199538 0.09374541 0.06081743 0.07956983 -0.06850478 -0.016337575 0.08054266 0.019389832
0.045520347 0.021326965 -0.052097358 0.08308016 0.03312266 0.07619658 -0.07863779 -0.072044894
0.08332697 -0.039330605 0.052715387 0.07470011 -0.010125695 0.08363677 0.053889584 0.006032243
0.04423515 0.059107076 0.04665213 0.073173925 -0.06223579 0.051345397 0.015104676 -0.070503384
-0.029186407 -0.047940332 0.04844405 -0.022754762 0.024140913 0.023724092 0.029523296 -0.020558538
0.0855998 0.04118682 0.018668251 -0.0132172 0.024073204 -0.04671781 0.08472722 -0.012817391
0.04411145 -0.075057216 0.08521145 -0.054378495 0.027895037 0.0123742465 0.048782106 0.06634229
00000000: ae47 bf3c ec77 323d 51e2 993d 40e3 523d
00000010: f1f8 33bd c48e 93bd cbba 76bd f9b0 f5bc
00000020: 432e 3f3c 4bfd 59bc 8b9a f63b a0fc 763d
00000030: d217 14bb 1d5b f13c e920 8bbd 11d2 453d
00000040: 25ac 78bd c508 9fbd bd45 313d 9ed4 e03c
00000050: 29e6 54bd 29ff 3c3d 2e3c 0d3c 1fb1 1abd
00000060: c74b d43c 9a50 60bd d377 6abc c8c2 663d
00000070: e577 52bd 34a5 1ebd fa26 103d d381 9fbc
00000080: 928c 793d 0e6e 3e3d 3883 693c de6b 4c3d
00000090: 3b41 98bd 3be7 a4bd db8b b2bd 0750 443d
000000a0: 4257 82bd e6c3 093d 21d4 973d 0d22 61bd
000000b0: 8da4 32bd b9ac a83c 9d2f 2b3a 30ee 973b
000000c0: 55cf 9a3d a7d1 26bd abed a93d e611 88bd
000000d0: 705f 68bd 8d52 cbbb 8126 303d 56b7 6abc
000000e0: 97c8 853d 27b3 1e3d 9e18 84bc 066a 2d3d
000000f0: 1f3e 0d3c e7ac 71bd 709e 743b edc8 cebd
00000100: 594b 5cbd 92f7 013d 5e6e c8bb 9ee6 3d3d
00000110: 6a65 5dbd 1066 99bd f08b dbbb 4970 9d3d
00000120: 6d9d 193d 38ff e5bc f92a 373d 83f3 a13d
00000130: 0cfd 5dbd dfce ccbd f2b5 1dbd 1a10 8fbd
00000140: ea8b 6fbd a945 883d 703f d23c 0a61 43bc
00000150: 1a8d 96bd 70ff 8e3d 0e95 393d e1ae b33d
00000160: eff6 863d 252e 1abd f243 3dbd 3c4b 6bbd
00000170: 1b1b 8abd 0d59 b4bd 77e2 943d 02de 25bd
00000180: 1695 ad3c 8522 b43d 1509 34bd 8e7a b5bc
00000190: e767 223d b4fc d7bb 0e69 5abd a67c 60bd
000001a0: 3b8f 15bd 5b20 41bb 8859 423d 03da 4fbd
000001b0: 5f7e 7e3d f693 01bd 5872 f43c 7e4a 3fbd
000001c0: a3a4 35bc e100 703c a001 b8bd 7144 90bb
000001d0: 8dc2 743c 7aec eabc e18f 5ebd 67b6 a83d
000001e0: 9409 0cbd 0883 683d 4778 d33c 45d2 043d
000001f0: b94c 7a3c a1b3 583d e2f5 74bd 3c7d 80bc
00000200: b969 12bd 0d44 9abd 8db1 ebbc ada9 b23c
00000210: bc6b 5cbc eeb4 96bd 8c26 0c3d 863c 5fbd
00000220: 1744 60bd dc0b 9f3c 6e7a 1d3d b5f4 7d3d
00000230: e7cb c63c 1257 b1bd 6bd1 033d fdc5 83bd
00000240: 66a6 a7bd 8967 92bd 1109 6e3c d9ff cb39
00000250: 487f f7bb 9ce8 953d 627b d0bc b83b 373d
00000260: ad03 bf3c 90b2 1f3d 228e 3f3d 11ae 643d
00000270: d73d c0bc 5150 023d 0fd5 973d f031 bc3b
00000280: 60ab 583d ca1c 863c 9fb0 aa3d 331b 933c
00000290: 2fae 2f3d e0bd 153d 5b41 8ebd a984 9ebd
000002a0: 4efd 9e3d a506 f03c f600 5a3d 6d13 453d
000002b0: 91ba 93bd b444 613d 896c 97bd 6b5d a6bd
000002c0: e4a8 93bd 9971 183d 73da 9dbd c05b a1bd
000002d0: 74c1 423d 004f 8abd 7166 85bc 9232 82bb
000002e0: 3d15 ba3c 6b77 3abc c417 b73b 19ef 963d
000002f0: 5c31 843d 2f28 78bd 6a19 983d ff87 a13d
00000300: 8e86 2a3d 1309 24bd 94e9 6cbd 60dd 5abd
00000310: 83e2 55bd 9c82 6fbd 28c1 09bc c452 a93c
00000320: 5903 2c3d 98fd bf3d b31b 793d 82f5 a23d
00000330: 3c4c 8cbd 61d6 85bc 8df3 a43d 6dd7 9e3c
00000340: 8b73 3a3d e3b5 ae3c 0a64 55bd ee25 aa3d
00000350: a0ab 073d f40c 9c3d da0c a1bd 468c 93bd
00000360: 55a7 aa3d 2119 21bd 17ec 573d 5ffc 983d
00000370: 3ee6 25bc c149 ab3d 53bb 5c3d 1faa c53b
00000380: eb2f 353d 431a 723d 4e16 3f3d 36dc 953d
00000390: f5ea 7ebd 8d4f 523d 9a79 773c 1464 90bd
000003a0: 5518 efbc 155d 44bd 456d 463d 3268 babc
000003b0: 2ac3 c53c 0759 c23c d7da f13c 616a a8bc
000003c0: f34e af3d 83b3 283d 29ee 983c f48c 58bc
000003d0: 2b35 c53c 2d5b 3fbd 7785 ad3d 0900 52bc
000003e0: 35ae 343d 99b7 99bd 5783 ae3d fcbb 5ebd
000003f0: 2284 e43c 5abd 4a3c bfcf 473d 77de 873d
