segmentation_paper/metrics/CNN_Model2_1a_Conv1D_2_filters.npy (npy, 102528 bytes, 1 tensors)

array f4 [50, 16, 32]
000000 bb 37 20 bd 04 fb 33 3d 8d c3 5b 3c f0 83 2f bd
       -0.03911565 0.04394056 0.013413322 -0.042850435
000010 05 39 8b 3c cf 93 f3 3c 59 7d 09 3d 4e 4e df bc
       0.016994962 0.029733567 0.033566806 -0.027259018
000020 96 df 6a bb b8 93 29 bb fb 4b ec 3c f1 8e 61 3b
       -0.0035838834 -0.00258754 0.028844824 0.0034417475
000030 9e 65 62 bd 45 dd 81 bb 8b 4e d6 3b d8 77 22 bc
       -0.05527269 -0.003963145 0.006540125 -0.009916268
000040 7f f5 f6 bc d7 70 40 3d 87 1b 58 3c 97 f4 5a 3d
       -0.030146359 0.046982612 0.013190157 0.053455915
000050 7a 25 1e 3d 6a 4d 28 3d 4c 5a c2 3c b2 c2 b2 3c
       0.03860996 0.041089453 0.023724698 0.021821354
000060 de 0b 15 bd 9a 2c e2 3c 0c a7 ba 3c f2 c4 2f 3c
       -0.03638827 0.027609158 0.022784732 0.010728108
000070 98 56 15 3d 7e cb 32 bd 20 89 ff 3c 17 4b a5 bc
       0.036459535 -0.043651097 0.031193316 -0.020177407
000080 96 d1 af bc 17 d3 73 3d 06 57 8a 3c 08 68 ed 3c
       -0.021462243 0.059527483 0.0168872 0.02898027
000090 4a 31 92 3c 85 81 07 3d 57 01 51 3c 28 5b ed 3c
       0.017845768 0.033082504 0.012756667 0.02897413
0000a0 5e 28 86 3b 60 77 2e 3b 54 ce 82 bd 3e 78 9f 3b
       0.0040941676 0.0026621446 -0.0638701 0.004866629
0000b0 16 67 69 bc 90 da 4d 3d 61 59 91 3d 41 84 19 3a
       -0.014245769 0.050257266 0.07097126 0.0005856194
0000c0 c4 da 93 ba b1 52 e2 3c 22 4e 82 3c cd 37 91 3b
       -0.0011280407 0.027627321 0.015906397 0.004431701
0000d0 06 b9 a4 3d da 06 3e bc 96 44 b0 bb 75 64 f1 bc
       0.08043103 -0.011598313 -0.00537927 -0.029466847
0000e0 d6 1f e2 3c d4 ad 9e bb 44 e4 e6 bc 41 14 42 3d
       0.027603071 -0.0048424993 -0.028185017 0.047382597
0000f0 d1 46 1f 3b 34 a8 0b 3d fa ff 51 bd 68 74 00 3d
       0.0024303684 0.034095958 -0.05126951 0.031361014
000100 1d af 0e 3d 68 d6 bb 3c 07 24 ea 3a 64 b8 fc 3c
       0.03483497 0.022929385 0.001786352 0.030849643
000110 9b 8c 98 3c 90 01 aa bc f5 87 77 3d b9 e6 17 3d
       0.018621733 -0.020752698 0.060432393 0.03708527
000120 e4 23 8c 3d 8e 92 64 3d fe d4 a3 3c 04 83 09 bd
       0.06842783 0.055803828 0.019999024 -0.03357221
000130 8a ba 0e 3d d1 a9 ab bc 2a 48 0c bc 11 01 78 bd
       0.034845866 -0.020954998 -0.008562127 -0.060547892
000140 76 9e 70 3d 48 d7 51 3d 60 52 14 3d a1 e3 4c 3d
       0.05874487 0.0512307 0.03621137 0.05002177
000150 33 68 cc bb d2 30 cf bb 9c 15 f2 3c 0e 2c 89 3a
       -0.0062380075 -0.0063229585 0.02955132 0.00104654
000160 11 b9 8e bc c8 80 70 3d 76 dc 1b 3d a8 2b ec 3b
       -0.01742223 0.058716565 0.038052045 0.0072073527
000170 56 d6 b5 bc 96 72 66 bd 1e 6c 9c bc cd 83 20 3d
       -0.02219693 -0.05626162 -0.019094523 0.039188195
000180 2d e2 ca 3b 12 ab 14 3d 1d 36 19 bd 8f e6 d1 bc
       0.006191513 0.036295958 -0.037405122 -0.025622634
000190 4c 9d 51 3d a0 60 ca bd 91 41 d3 3c 7a c5 f6 3b
       0.0511754 -0.09881711 0.0257881 0.0075308653
0001a0 7c 63 13 bd 81 8e 99 bb 19 f5 50 3d fe d8 de 3b
       -0.035983548 -0.0046861772 0.051014993 0.00680077
0001b0 14 6a b8 3c 38 91 ec 3b 12 cf 99 bb c9 76 13 3c
       0.02251152 0.00721946 -0.004693874 0.009000489
0001c0 c0 b9 0f bd fa ce ea bc 89 65 3f bd 39 32 92 3b
       -0.035089254 -0.028663147 -0.04672769 0.0044615534
0001d0 7e c2 00 bd e5 f7 5d bc ad ba 62 bd 1b b4 e3 3b
       -0.031435482 -0.013547872 -0.05535381 0.0069489605
0001e0 20 a7 47 3d 63 29 81 bc c5 a1 d7 bc b5 b2 1b 3d
       0.048743367 -0.015766805 -0.026322255 0.038012225
0001f0 7a 93 68 bd 78 82 09 3a a4 a7 19 bc 1e a8 38 bc
       -0.05678127 0.00052455766 -0.009378348 -0.011270551
000200 51 07 23 3c fb bd 35 bd 21 33 98 bb 9e ba f4 3c
       0.009950475 -0.044370633 -0.004644767 0.029874142
000210 43 d4 6d bd 96 3c 4a bd 07 c9 1a bc 39 49 f5 3c
       -0.058063757 -0.049374186 -0.009447343 0.029942142
000220 1a 44 46 bd 84 a8 0e bd 0d a7 46 bd 69 1e db bc
       -0.04840479 -0.034828678 -0.048499156 -0.0267479
000230 33 e5 b3 bc 5f 52 64 3c af f4 3e 3d c5 d7 e2 bd
       -0.021959877 0.013935654 0.046620067 -0.11076311
000240 18 49 62 bd c2 4b 32 3b c5 6f ff 3b 22 06 c6 bc
       -0.05524549 0.00272058 0.0077953064 -0.024172846
000250 f6 2b eb 3c 45 4d 24 bc 9c 94 aa bd 8d 57 43 bc
       0.028707486 -0.010028188 -0.08329126 -0.011922729
000260 cc f9 0d 3c c2 d6 17 3c d0 ce 3e bc 45 92 d2 bc
       0.008665513 0.009267511 -0.011645988 -0.025704512
000270 41 5e 39 3d e6 fa c4 bb 32 b5 dd 3c 40 48 da bc
       0.045255903 -0.0060113547 0.02706394 -0.02664578
000280 19 cb db 3c fb 2c 12 bd c3 54 67 3d 6e 94 5e bd
       0.026830243 -0.035687428 0.05647732 -0.054340772
000290 0b cc ba bc 0a 96 2b bd b7 4d 10 bd a8 b1 04 bd
       -0.022802373 -0.041891135 -0.035230365 -0.03239599
0002a0 b3 2e 02 bc ae 1d 52 bc bd d0 4b 3d f0 c1 8b 3c
       -0.007945704 -0.012824459 0.049759615 0.01706025
0002b0 49 94 e1 bc 20 bd 69 3c a3 26 5f 3d 4a e0 32 be
       -0.027536528 0.014266282 0.054480206 -0.17468372
0002c0 bd de 9d bd 45 ae 8f bc e8 81 a1 3c e4 36 f3 bc
       -0.077084996 -0.017539153 0.019715264 -0.02968926
0002d0 df 77 2d bd a8 55 a4 3c eb 8f 4b bd 8e 48 05 bd
       -0.042350646 0.020060375 -0.049697798 -0.032539897
0002e0 20 5f 09 bd 21 9a a7 3b 2b 81 06 bd 95 23 61 3d
       -0.033537984 0.005114809 -0.032838028 0.054965574
0002f0 5f f4 54 bd 25 e7 54 3d 63 97 0d bc 56 ac a2 3c
       -0.051990863 0.05197825 -0.00864205 0.019857567
000300 88 67 f7 bc 0d 6b 0b 3d c8 3b 85 3b 88 82 a3 bc
       -0.030200735 0.03403764 0.0040659644 -0.019959703
000310 af 86 52 bd 87 fc 52 bc 6b 15 41 3d 3d 19 6b 3c
       -0.051397976 -0.01287759 0.047139566 0.014349279
000320 59 30 83 3c 64 bf 74 3c a2 dd 18 ba 6d b0 21 3c
       0.016014265 0.014938209 -0.00058313657 0.009868723
000330 30 38 ab bc c0 0d 2b 3d 23 1b 34 3d 33 d3 ab 3d
       -0.020900816 0.04176116 0.043971192 0.083898924
000340 74 56 3f 3c b9 97 9c 3d 34 da 29 3d 2f ed 3c 3c
       0.011678327 0.07646126 0.04146786 0.011531158
000350 8c 29 20 bd bf 5d d9 3c 02 78 2d bd 73 cd cc b9
       -0.039102122 0.02653396 -0.042350776 -0.00039062984
000360 26 87 cb 3c 57 3b 8f 3d 59 be e2 bb 88 b6 aa 3c
       0.024844717 0.0699374 -0.006919664 0.02083899
000370 bd 2c 19 3d ae aa 22 3d bb 67 bb bb 26 30 3f 3c
       0.03739618 0.039713554 -0.0057191527 0.011669194
000380 a6 ff ab 3c b0 39 40 3b a4 ef dd bc 11 50 f7 bc
       0.020995926 0.002933126 -0.027091809 -0.030189546
000390 8a b8 c7 bc a0 36 17 bc e2 d5 50 bc ce 8f 1e 3b
       -0.024379987 -0.009229332 -0.012746306 0.00241946
0003a0 ec c8 08 bd 1b c7 c7 bb ba 30 6b bc fb f5 98 bc
       -0.03339474 -0.0060967333 -0.014354879 -0.01867198
0003b0 62 20 5d 3d a1 c7 33 3d 10 4a 11 3d c9 c9 58 bd
       0.05398596 0.043891553 0.035471022 -0.052926812
0003c0 4f 40 16 bd 1e 6a 85 bc b8 05 ec 3b 45 b0 29 bd
       -0.036682423 -0.016285952 0.00720283 -0.04142787
0003d0 3e fe 4d bd 7e 65 a5 bc ee e6 18 3d 08 50 04 bd
       -0.050291292 -0.020189997 0.037329607 -0.032302886
0003e0 f4 be 54 bb d7 0e 5c 3c 3c cb 58 bd 96 c2 af 3c
       -0.003246245 0.0134312725 -0.052928194 0.02145509
0003f0 25 99 b4 bc ff 48 c0 3c 1e 59 48 bd 73 c6 2a 3d
       -0.022045681 0.023472307 -0.048913114 0.041693162
